saved_dvae/best_model.pt (torch, 620907 bytes, 28 tensors)

encoder.0.weight f4 [64]
0	0x3f7a749d	0.9783419
1	0x3f933001	1.1499025
2	0x3f85b401	1.0445558
3	0x3f64c3bd	0.8936117
4	0x3f849022	1.0356486
5	0x3f7bd7e4	0.983763
6	0x3f86a990	1.0520496
7	0x3f660b0c	0.89860606
8	0x3f9c6e8b	1.2221235
9	0x3fb33f07	1.400361
10	0x3f9c7828	1.2224169
11	0x3f8326b0	1.0246181
12	0x3f5fc3af	0.87407964
13	0x3f70aed2	0.94016755
14	0x3f9b1503	1.2115787
15	0x3f914766	1.1349914
16	0x3f73e006	0.9526371
17	0x3f73e873	0.95276564
18	0x3f8dfbf6	1.1092517
19	0x3f8cf088	1.1010904
20	0x3fa200dc	1.2656512
21	0x3f6b30a7	0.9187111
22	0x3f928646	1.1447227
23	0x3fa2fd1b	1.2733492
24	0x3f984153	1.1894935
25	0x3f99a55a	1.2003586
26	0x3f717cf9	0.9433132
27	0x3f95f89d	1.1716496
28	0x3f74e846	0.9566692
29	0x3f6e288f	0.9303064
30	0x3f7e4711	0.9932719
31	0x3fa7f5b8	1.3121862
32	0x3f7ef463	0.99591655
33	0x3f92035b	1.1407274
34	0x3fb4bf11	1.4120809
35	0x3f815b0f	1.0105914
36	0x3f99cae4	1.2015042
37	0x3f698918	0.91224813
38	0x3f7b961d	0.9827593
39	0x3f8d37de	1.1032674
40	0x3f85efcc	1.0463805
41	0x3f7cba2d	0.9872158
42	0x3f7507c5	0.9571498
43	0x3f7bcb78	0.98357344
44	0x3f7553d3	0.9583103
45	0x3f6df6a3	0.9295446
46	0x3f7c58aa	0.9857279
47	0x3f74ff6a	0.9570223
48	0x3f7afac8	0.9803891
49	0x3fa16e58	1.2611799
50	0x3f7a9242	0.9787942
51	0x3f789b3d	0.97111875
52	0x3f68c013	0.9091808
53	0x3f6d9a6b	0.9281375
54	0x3f931f64	1.1493955
55	0x3f81aa07	1.0130013
56	0x3f925895	1.1433283
57	0x3f6be5c4	0.9214747
58	0x3f806d55	1.0033365
59	0x3f6e352e	0.93049896
60	0x3f5872c9	0.8455015
61	0x3f6e2cab	0.9303691
62	0x3f74f7ac	0.9569042
63	0x3f6b2dba	0.9186665

encoder.0.bias f4 [64]
0	0xbde2bc81	-0.110711105
1	0xbe5aaff3	-0.21356182
2	0x3d532dc0	0.051557302
3	0xbe6732d6	-0.22577986
4	0x3924f690	0.0001573211
5	0xbe45d57b	-0.19319718
6	0x3c52ccbf	0.012866198
7	0xbe82bee3	-0.2553626
8	0x3d943648	0.07236916
9	0xbd5ee386	-0.054416202
10	0xbdb808b4	-0.08986035
11	0xbe2d3eed	-0.16918536
12	0xbe0dc69a	-0.13845292
13	0xbe6142a2	-0.21998075
14	0xbe483122	-0.19549993
15	0x3e49a204	0.1969071
16	0xba2cc06d	-0.0006589953
17	0xbe4d3126	-0.2003828
18	0xbdb663c8	-0.089057505
19	0xbdecf6d7	-0.115705185
20	0xbd6b0186	-0.0573745
21	0x3e547fb9	0.20751847
22	0xbe27d242	-0.163888
23	0xbc05c394	-0.008164305
24	0x3c1fc264	0.009750936
25	0xbdabe853	-0.08393922
26	0x3dc6a8be	0.09700154
27	0xbd21b01b	-0.039474588
28	0x3c14f9da	0.009092772
29	0xbe48d6cf	-0.19613193
30	0x3d2f3a20	0.04278004
31	0x3d08655f	0.0332998
32	0xbe7908be	-0.24319741
33	0xbc1cc096	-0.0095674
34	0x3e16b674	0.14718038
35	0xbdecba47	-0.11558967
36	0xbcff3af9	-0.03115605
37	0xbde3271c	-0.11091444
38	0x3ddd2f08	0.10799986
39	0xbe3100bf	-0.17285441
40	0xbd44faa1	-0.04809058
41	0xbe19b4ed	-0.15010424
42	0x3cba9190	0.022774488
43	0xbea8d36b	-0.329738
44	0xbd186073	-0.037201356
45	0x3d75e796	0.06003531
46	0xbd6d4e07	-0.05793574
47	0xbd96b2ba	-0.07358308
48	0xbe10c8f9	-0.14139165
49	0x3d001ee4	0.03127946
50	0xbe848876	-0.2588536
51	0xbe028d95	-0.12749322
52	0x3d54482b	0.051826637
53	0xbe4eb047	-0.20184432
54	0xbd8dfcb4	-0.06932965
55	0x3c1a060e	0.009400858
56	0xbe0193fd	-0.1265411
57	0xbe1d262d	-0.15346594
58	0xbe19f4d5	-0.15034802
59	0xbdae5bc1	-0.085135944
60	0xbe7cef03	-0.2470055
61	0xbe65cf60	-0.22442389
62	0xbe3a2995	-0.18179925
63	0xbe805bdd	-0.25070086

encoder.0.m.weight f4 [64, 3, 4, 4]
0	0x3e8e899b	0.2783936
1	0x3e7686d0	0.24074864
2	0xbeae8089	-0.3408244
3	0xbe5f2a50	-0.21793485
4	0x3e1ab321	0.15107395
5	0xbe4f2944	-0.20230585
6	0x3d8d4a88	0.06898981
7	0xbe3b70d0	-0.18304753
8	0x3cd4882c	0.025943838
9	0x3e2a472e	0.16628715
10	0x3de1bd1e	0.11022399
11	0x3e6cddd5	0.23131497
12	0xbe171218	-0.14752996
13	0x3e0b69a1	0.13614513
14	0x3d92ae40	0.07162142
15	0xbe390109	-0.18066801
16	0xbeaac694	-0.33354628
17	0x3e9828e8	0.2971871
18	0xbe10f63d	-0.14156432
19	0x3e4d4b94	0.20048362
20	0x3e1ca4c5	0.1529723
21	0x3c8da57a	0.01729082
22	0xbe6e19cd	-0.2325203
23	0x3d738f6c	0.05946295
24	0xbe7ab173	-0.24481754
25	0x3e149e96	0.1451362
26	0xbd48648c	-0.048924014
27	0x3eb173b8	0.346586
28	0xbeb87c2c	-0.36032236
29	0xbd145af6	-0.03621956
30	0x3e0698c3	0.13144211
31	0x3dbf44dd	0.093393065
32	0x3e8aa8f3	0.27082023
33	0xbda5e627	-0.08100539
34	0xbe6513e0	-0.22370863
35	0x3ec2cf5d	0.3804883
36	0xbc86ab86	-0.01643921
37	0x3e0f7ab4	0.14011651
38	0xbe801ac4	-0.2502042
39	0xbdf672ad	-0.120335914
40	0xbe686aaf	-0.22696947
41	0xbd06795e	-0.03283059
42	0x3ddbeae1	0.10738159
43	0xbdd92a06	-0.106037185
44	0xbcf707a6	-0.030155014
45	0xbca9758c	-0.020685934
46	0x3ec4be15	0.3842627
47	0xba167ec4	-0.00057409354
48	0x3ee1ddb6	0.44114465
49	0xbdfd1b4f	-0.12358724
50	0xbdcf5815	-0.10124222
51	0xbe8dec24	-0.27719223
52	0x3eac9da9	0.33714035
53	0xbe1f3a94	-0.1554969
54	0x3e27c934	0.16385347
55	0xbe6fbbfa	-0.23411551
56	0x3ecbf422	0.39834696
57	0x3ddadc73	0.106865786
58	0xbe9d023b	-0.30665764
59	0xbd81bbff	-0.063346855
60	0x3d87a8cb	0.066239916
61	0xbea8ebb5	-0.3299233
62	0x3d1e4181	0.03863669
63	0x3e61542d	0.22004767
64	0x3d90b7f8	0.07066339
65	0xbc5257d6	-0.0128383245
66	0xbd86096a	-0.06544764
67	0x3df6d635	0.120525755
68	0xbe3acb02	-0.18241504
69	0x3ebee525	0.37284198
70	0x3eae35ac	0.34025323
71	0x3e1e96b6	0.15487179
72	0xbe0fb595	-0.14034112
73	0xbe913567	-0.28361055
74	0xbe1a4d35	-0.15068515
75	0x3eae37da	0.34026986
76	0xbeb44e18	-0.3521583
77	0xbe9a08b7	-0.30084774
78	0x3caff79f	0.02148038
79	0x3e0d3632	0.13790205
80	0xbe823d88	-0.2543757
81	0xbe67a27d	-0.22620578
82	0x3da9fdac	0.08300337
83	0xbe3e3cd9	-0.18577899
84	0x3e7acd38	0.24492347
85	0x3e0f0509	0.13966765
86	0xbe580026	-0.21093807
87	0xbe8c724d	-0.27430955
88	0x3e2fc16b	0.17163627
89	0xbdb298d5	-0.08720557
90	0xbdc1ee1b	-0.09469243
91	0x3e4dd7a7	0.20101796
92	0xbe473823	-0.19455008
93	0x3db89352	0.09012474
94	0x3db95beb	0.09050735
95	0xbdc78254	-0.09741655
96	0xbe618a06	-0.22025308
97	0x3e6fc359	0.23414363
98	0xbe5cbe59	-0.21556987
99	0xbe1783a8	-0.14796317
100	0x3dff728c	0.1247302
101	0xbe03b0c4	-0.128604
102	0x3e791aa8	0.24326575
103	0xbe8ba937	-0.27277538
104	0x3e1597bc	0.14608663
105	0x3de0110c	0.109407514
106	0x3e4eaf0c	0.20183963
107	0xbea6d961	-0.32587722
108	0x3d88f601	0.066875465
109	0x3e67099c	0.2256226
110	0xbe2221a0	-0.1583314
111	0x3de359d9	0.111011215
112	0xbd5ca283	-0.05386592
113	0x3e8daf2f	0.27672717
114	0xbdae1647	-0.08500343
115	0xbc85875d	-0.016299898
116	0xbe318985	-0.17337616
117	0xbdcada89	-0.099049635
118	0x3dd9216e	0.10602079
119	0xbea1ff8c	-0.3164028
120	0x3e7b903f	0.24566744
121	0x3e780317	0.24219929
122	0x3e2a45d5	0.16628201
123	0x3e9d31b5	0.30701986
124	0xbe04eb52	-0.12980393
125	0x3d95cf46	0.07314925
126	0x3d0e8c74	0.034801915
127	0xbe603ac7	-0.21897422
128	0xbde6b1a6	-0.112643525
129	0xbd855c06	-0.06511693
130	0x3c05d638	0.0081687495
131	0xbe684cc3	-0.22685532
132	0xbe6d1342	-0.23151878
133	0x3d3b746c	0.045765325
134	0x3d5dd2a4	0.05415596
135	0xbe6a4eb3	-0.22881584
136	0x3db56c87	0.088585906
137	0x3e8737b9	0.264097
138	0x3ebf30f8	0.37342048
139	0x3eb8ea92	0.36116463
140	0xbe85461d	-0.26030055
141	0xbd8c098b	-0.06837758
142	0xbded422d	-0.11584888
143	0x3deb8203	0.11499407
144	0x3d4fae8a	0.050703563
145	0x3d28aca2	0.04118026
146	0x3e2d34e0	0.16914701
147	0x3e16101f	0.14654587
148	0xbe4b1056	-0.1983045
149	0x3e7875cb	0.24263684
150	0x3e75eb6e	0.2401559
151	0x3ce70bb7	0.028203828
152	0xbe9c2c80	-0.305027
153	0xbe553ab1	-0.2082317
154	0x3dd6a555	0.10480753
155	0x3debf989	0.115222044
156	0x3e85a1db	0.26100048
157	0x3dff61fb	0.1246986
158	0x3da490f3	0.08035459
159	0xbd57aa38	-0.052652568
160	0x3e57d296	0.21076426
161	0xbe3c7ced	-0.1840703
162	0x3de03362	0.109473005
163	0xbe14c905	-0.14529808
164	0xbca65118	-0.02030234
165	0x3e465246	0.19367322
166	0x3e1ebf1d	0.15502591
167	0xbda715e5	-0.08158473
168	0x3b958d8b	0.0045639924
169	0xbe317a22	-0.17331746
170	0x3e3735de	0.17891642
171	0x3e70ffb0	0.23535037
172	0x3e11e0b5	0.14245875
173	0xbea264b3	-0.31717452
174	0xbe6a9066	-0.22906646
175	0x3e8a6a51	0.27034238
176	0xbd9d3967	-0.07676964
177	0x3e10d36b	0.1414315
178	0x3e3337ef	0.17501806
179	0xbe25ebd5	-0.16203244
180	0xbe0de30e	-0.13856146
181	0xbea13ecd	-0.31493226
182	0x3e1617b6	0.14657483
183	0x3e5f0e2c	0.2178275
184	0x3d8e4cc0	0.06948233
185	0xbe6447db	-0.22293036
186	0xbe206263	-0.15662532
187	0x3cec16a5	0.028819392
188	0x3e44a333	0.1920288
189	0xbcdbc8af	-0.026829092
190	0xbe09e8ca	-0.13467708
191	0xbe7f613a	-0.24939433
192	0x3ed0073b	0.40630516
193	0x3e706503	0.23476033
194	0xbe534b07	-0.2063409
195	0xbe40237e	-0.18763539
196	0xbdd66619	-0.10468692
197	0x3e7250f4	0.23663694
198	0xbcfa04bd	-0.030519838
199	0xbc923c0c	-0.017850898
200	0x3e074417	0.13209568
201	0xbe1e068a	-0.15432182
202	0xbe670a38	-0.22562492
203	0xbe9c0cc9	-0.30478504
204	0x3b3117b7	0.0027022192
205	0x3e341502	0.17586139
206	0xbd89445a	-0.0670249
207	0x3ca927cb	0.020648858
208	0xbdd58937	-0.10426562
209	0x3e800d80	0.250103
210	0xbe4e19f1	-0.20127083
211	0x3ebc6402	0.3679505
212	0xbeb9d3f8	-0.36294532
213	0xbeca0dd6	-0.3946368
214	0x3cb2d935	0.021832088
215	0xbe7e8db7	-0.24858747
216	0x3df20ce1	0.11818863
217	0xbe8f6248	-0.2800467
218	0x3e40b21e	0.18817946
219	0x3e950a95	0.29109636
220	0x3d48d238	0.049028605
221	0x3d5a5bdb	0.053310256
222	0x3e9b4170	0.30323362
223	0x3e708e87	0.2349187
224	0xbe8276a5	-0.25481144
225	0xba89ebef	-0.0010522584
226	0xbea97f08	-0.3310473
227	0x3e805e54	0.25071967
228	0xbd628444	-0.05530192
229	0xbc21759a	-0.009854699
230	0xbe6953f4	-0.22785932
231	0xbe5716e2	-0.21004823
232	0x3cde1c0d	0.027112985
233	0x3e892ed9	0.26793554
234	0xbe3f6bd7	-0.18693481
235	0x3cdef7e3	0.027217811
236	0x3e9505fe	0.29106134
237	0x3e87dedd	0.2653722
238	0xbdc57f5c	-0.096434325
239	0x3eadf546	0.3397619
240	0x3db1ad88	0.086756766
241	0x3e9c71b9	0.30555514
242	0x3ae1e5de	0.0017234643
243	0xbea82c73	-0.32846412
244	0xbdd7790a	-0.10521133
245	0x3dd6521c	0.1046488
246	0x3e328ee4	0.17437321
247	0xbec30d05	-0.3809587
248	0x3e8efb18	0.27925944
249	0xbea12191	-0.31470922
250	0x3e33b4d5	0.1754945
251	0x3e95d441	0.292635
252	0x3cf1f738	0.029536828
253	0xbddde158	-0.108339965
254	0x3deaf33b	0.11472174
255	0xbe5e76fa	-0.21725073

encoder.1.weight f4 [64]
0	0x3fa423da	1.2823441
1	0x3f78d6ea	0.9720293
2	0x3f7bfa86	0.98429143
3	0x3f8719e0	1.0554771
4	0x3f82e46c	1.0225959
5	0x3f87ec4a	1.0618985
6	0x3f813461	1.009411
7	0x3f7ac577	0.9795756
8	0x3f79187c	0.97302985
9	0x3f91cc2c	1.1390433
10	0x3f7818f5	0.9691308
11	0x3fa1f89b	1.2653993
12	0x3f54ffa7	0.83202595
13	0x3f5a9599	0.8538452
14	0x3f819103	1.0122379
15	0x3f4281fc	0.7597959
16	0x3f8562f4	1.0420823
17	0x3f83fad8	1.0310926
18	0x3f83542b	1.0260061
19	0x3f9f07c2	1.2424242
20	0x3f6afd63	0.9179289
21	0x3f8ef518	1.1168547
22	0x3f5a9960	0.8539028
23	0x3f93df35	1.1552492
24	0x3f593ce6	0.8485855
25	0x3facfcab	1.3514608
26	0x3f81d8b9	1.0144264
27	0x3f701d49	0.93794686
28	0x3f82a260	1.0205803
29	0x3fa98094	1.3242364
30	0x3f52e923	0.8238699
31	0x3f5d7b15	0.86515933
32	0x3f859c94	1.0438409
33	0x3f88dd9d	1.0692631
34	0x3f6465d8	0.892179
35	0x3f829a97	1.0203427
36	0x3f823786	1.0173194
37	0x3fa978a1	1.3239938
38	0x3f53b965	0.82704765
39	0x3f6936aa	0.91099036
40	0x3f58d2c4	0.846966
41	0x3f576379	0.8413616
42	0x3f9b7e55	1.2147928
43	0x3f86881c	1.0510287
44	0x3f9fbadc	1.24789
45	0x3f904c2f	1.1273249
46	0x3f75c881	0.9600907
47	0x3f672484	0.90290093
48	0x3f7d678e	0.98986137
49	0x3f9c2606	1.2199104
50	0x3f6adc3b	0.91742295
51	0x3f70164c	0.9378402
52	0x3f6c9ae0	0.9242382
53	0x3f7e4ea0	0.9933872
54	0x3f60bb70	0.87786007
55	0x3f68536a	0.9075228
56	0x3f911596	1.1334713
57	0x3fb79cdb	1.4344743
58	0x3f8812d4	1.0630746
59	0x3f8262f1	1.0186445
60	0x3f90d7ba	1.1315835
61	0x3f831cf4	1.0243211
62	0x3f9285a4	1.1447034
63	0x3f5710a6	0.8400978

encoder.1.bias f4 [64]
0	0xbe4e0ccf	-0.20122074
1	0xbdc15d89	-0.094416685
2	0x3d976590	0.073924184
3	0xbe3c0d81	-0.18364526
4	0xbe7d04a1	-0.24708797
5	0xbe41e483	-0.18934827
6	0xbe602473	-0.21888904
7	0xbe7ee420	-0.2489171
8	0xbe2a6252	-0.16639069
9	0xbe1b1e88	-0.15148365
10	0xbe4cbd18	-0.19994009
11	0xbe5a4956	-0.21317038
12	0xbe2b6622	-0.1673818
13	0xbe6bb461	-0.23018028
14	0xbe33d729	-0.17562546
15	0xbdf2390d	-0.11827288
16	0xbd8d369a	-0.0689518
17	0xbe93ee5d	-0.28892794
18	0xbd4c9fd1	-0.0499571
19	0xbe564f96	-0.20928797
20	0xbe49882c	-0.19680852
21	0xbd3e5b8f	-0.046474036
22	0x3ea15467	0.31509706
23	0xbe2edf32	-0.1707733
24	0xbdd3842b	-0.103279434
25	0xbd46790c	-0.048455283
26	0xbe03b0b1	-0.12860371
27	0xbe71c5b2	-0.23610571
28	0xbe04dca1	-0.12974788
29	0xbe0e6338	-0.13905036
30	0xbcbe39bd	-0.023220891
31	0xbe1af5ce	-0.1513283
32	0xbdc2aef5	-0.09506027
33	0xbe6652ec	-0.2249257
34	0xbe2d35d7	-0.1691507
35	0xbe0cf678	-0.13765895
36	0xbe045818	-0.1292423
37	0xbdfe8ab4	-0.12428799
38	0xbe3db564	-0.18526226
39	0xbdc6955a	-0.09696455
40	0x3c34d5ab	0.011037271
41	0xbdc2c17c	-0.095095605
42	0xbe99441f	-0.29934785
43	0xbe170b2c	-0.14750355
44	0x3d2a87be	0.04163336
45	0xbe5000f1	-0.20312859
46	0xbdeaf9a3	-0.11473396
47	0xbe1796cc	-0.14803618
48	0x3d0f0bc0	0.034923315
49	0xbe06fd1c	-0.13182491
50	0xbd498084	-0.049194828
51	0xbddee6bd	-0.108838536
52	0xbe27b139	-0.16376199
53	0xbdafa738	-0.08576816
54	0xbe213474	-0.15742666
55	0x3c5aeced	0.013362152
56	0xbe049353	-0.12946825
57	0xbdc7e7af	-0.09760987
58	0x3e499dbc	0.19689077
59	0xbe2aac62	-0.16667321
60	0xbe380af2	-0.17972925
61	0xbe2567c2	-0.16152862
62	0xbe536a07	-0.20645915
63	0xbb79b6f1	-0.0038103426

encoder.1.m.weight f4 [64, 64, 1, 1]
0	0x3e33d408	0.17561352
1	0xbe12d06b	-0.14337318
2	0xbc2cb6f7	-0.010541669
3	0xbdbfc3d2	-0.09363522
4	0x3e2dc692	0.1697028
5	0xbe7374c2	-0.23775008
6	0xbf2c68c0	-0.67347336
7	0xbf4eccbc	-0.8078115
8	0x3e24b71d	0.16085477
9	0x3e7ba17a	0.24573317
10	0x3ea727ad	0.32647458
11	0x3cdd3c06	0.02700616
12	0x3e8d8a80	0.2764473
13	0x3d898003	0.067138694
14	0xbe17e32a	-0.1483275
15	0xbe96dcb5	-0.2946526
16	0xbe84f519	-0.25968245
17	0x3d66600a	0.056243934
18	0x3e0d6211	0.1380694
19	0xbec17b87	-0.37789556
20	0xbdd98337	-0.1062073
21	0xbdb009d1	-0.08595622
22	0xbe1ca5c1	-0.15297605
23	0xbdc4240c	-0.09577188
24	0x3c830682	0.015994314
25	0x3e39b7fd	0.18136592
26	0xbe2d44ed	-0.16920824
27	0xbcacab51	-0.021077784
28	0xba911ca8	-0.0011071162
29	0x3d7173b7	0.058948245
30	0xbd0dff6c	-0.034667417
31	0xbe87681e	-0.26446623
32	0xbdf7fbbd	-0.12108562
33	0x3ddd8e02	0.108181015
34	0x3ea6bb21	0.32564643
35	0xbdb04756	-0.08607356
36	0x3d977afd	0.07396505
37	0x3cf16bb3	0.0294703
38	0x3e130f57	0.1436132
39	0xbe9faf4f	-0.31188437
40	0xbf1fad1b	-0.62373513
41	0xbee72630	-0.45146322
42	0xbe51dad8	-0.20493639
43	0x3e98a385	0.29812256
44	0x3e030315	0.12794144
45	0x3dd03df1	0.101680644
46	0x3e90bff0	0.28271437
47	0xbdf9a71a	-0.12190075
48	0x3cfd91b8	0.030953273
49	0xbbae20d9	-0.0053139743
50	0xbeb8b89a	-0.3607834
51	0xbec99471	-0.39371064
52	0xbe04bbd4	-0.12962276
53	0x3dcc2471	0.09967888
54	0xbd8c6c86	-0.06856637
55	0xbd889897	-0.06669729
56	0x3e313a2d	0.17307349
57	0xbdaaf649	-0.083477564
58	0xbdc31e25	-0.09527234
59	0xbd8393e5	-0.06424693
60	0x3db1f432	0.08689155
61	0x3d78c943	0.060738813
62	0xbe5212fe	-0.20515057
63	0x3e9aa43a	0.3020342
64	0xbe29b9e9	-0.16574825
65	0x3d96d813	0.07365432
66	0x3e01d0d7	0.12677322
67	0x3dce278d	0.100661375
68	0x3e924c75	0.28573957
69	0x3c09c939	0.008409792
70	0xbeaba319	-0.3352287
71	0x3d8c68a6	0.068558976
72	0x3dd79673	0.10526743
73	0xbe065b46	-0.13120756
74	0x3e4db8e7	0.20090066
75	0x3d99c0f4	0.07507506
76	0xbdc46381	-0.09589291
77	0x3cbbf47e	0.022943731
78	0xbc902d9c	-0.017599873
79	0x3e965005	0.29357925
80	0x3e2fbeaf	0.17162584
81	0x3e78f53c	0.243123
82	0xbe95c51f	-0.29251954
83	0xbd8d9b8a	-0.06914432
84	0xbde8ddbd	-0.11370418
85	0xbabde86f	-0.0014488826
86	0xbd9b9f0e	-0.07598697
87	0x3ead3b05	0.3383409
88	0x3dc06a5d	0.09395287
89	0xbd4a7c6c	-0.049435064
90	0x3d41b00b	0.04728703
91	0xbdb63998	-0.08897704
92	0xbd7dcd8f	-0.061963614
93	0x3d460d7f	0.048352715
94	0x3e884783	0.2661706
95	0x3ceb55c4	0.02872742
96	0x3db7a175	0.08966342
97	0x3e742de8	0.23845637
98	0x3e326b6d	0.17423792
99	0xbb857a76	-0.0040734364
100	0x3e2e25c8	0.170066
101	0xbe25ead5	-0.16202863
102	0x3db5a267	0.088688664
103	0x3cd8a044	0.026443608
104	0x3e2dc423	0.16969351
105	0xbec22238	-0.37916732
106	0x3e1b83cd	0.15186997
107	0xbeabfa9f	-0.33589646
108	0xbe0c48a3	-0.13699584
109	0xbd93b846	-0.07212882
110	0xbddb4c1c	-0.10707876
111	0xbe0475b5	-0.12935527
112	0xbe91f9e9	-0.2851098
113	0xbe4661d2	-0.19373253
114	0xbdeb9e40	-0.11504793
115	0x3da3b47a	0.079934075
116	0xbd161f01	-0.03665066
117	0xbe460555	-0.19337972
118	0x3d1e103c	0.0385897
119	0xbe8b2eef	-0.27184245
120	0xbd791c65	-0.060818095
121	0x3e80efd8	0.25182986
122	0xbe998095	-0.29980913
123	0x3e0d10b9	0.1377591
124	0x3dc67f8d	0.09692297
125	0x3e599abb	0.21250431
126	0xbe4ba5ac	-0.19887418
127	0x3d7431ca	0.059617795
128	0x3e45d723	0.1932035
129	0xbe5516d0	-0.20809484
130	0x3e8e3994	0.27778304
131	0xbc78b2c0	-0.015179336
132	0xbebe4306	-0.3716051
133	0xbcf81308	-0.030282512
134	0x3c2c60db	0.010521139
135	0xbdfad682	-0.12247945
136	0xbcde1609	-0.027110117
137	0xbb66c057	-0.0035209858
138	0x3d973a65	0.07384185
139	0x3e0f1e39	0.13976373
140	0xbe8f74f1	-0.28018907
141	0xbcce9d2a	-0.025221426
142	0x3e183835	0.14865191
143	0x3e840249	0.25782993
144	0x3debcc3b	0.11513563
145	0x3e5003dd	0.20313974
146	0x3dd3cb33	0.103414916
147	0xbd15909d	-0.036514867
148	0x3de8615a	0.11346693
149	0xbdef7a7f	-0.11693286
150	0x3e1a473e	0.15066239
151	0xbe95422b	-0.29152045
152	0x3e54961a	0.20760384
153	0xbe3975d8	-0.1811136
154	0x3e64f7f9	0.22360219
155	0x3e5ca47f	0.21547125
156	0x3e1b28a3	0.1515222
157	0x3e7dc04d	0.24780388
158	0xbe249a66	-0.16074523
159	0xbe25c9df	-0.16190289
160	0xbeb3b81d	-0.35101405
161	0xbe1f2881	-0.15542795
162	0x3cc23a1a	0.023709346
163	0x3e902d5c	0.28159606
164	0xbe42c445	-0.19020183
165	0xbe7af07d	-0.24505801
166	0xbe8e49ee	-0.2779078
167	0xbe1588a3	-0.14602904
168	0xbd17f4d8	-0.037098736
169	0x3d59bc8b	0.053158324
170	0xbd8cfe12	-0.068843976
171	0x3dc231f3	0.09482183
172	0x3bf30836	0.0074167503
173	0xbe2e390e	-0.17013952
174	0x3e4604c3	0.19337754
175	0xbe625c0f	-0.2210543
176	0xbdba3763	-0.090925954
177	0x3d855eb0	0.06512201
178	0xbd866853	-0.06562867
179	0x3c620290	0.013794556
180	0xbdf4090b	-0.11915787
181	0x3e2c4c13	0.16825895
182	0x3e03edfa	0.1288375
183	0x3e804cb7	0.2505853
184	0x3e849436	0.25894326
185	0xbe249b12	-0.1607478
186	0xbdd4252d	-0.10358653
187	0xbe1eb989	-0.15500464
188	0xbca32b4d	-0.019918108
189	0xbe089095	-0.13336404
190	0x3e695d41	0.2278948
191	0xbe8c4975	-0.27399793
192	0xbda968ed	-0.08271966
193	0x3c2e510c	0.01063944
194	0xbe49788a	-0.19674888
195	0xbd8cad42	-0.06868984
196	0x3cf1f98d	0.02953794
197	0xbd4016a8	-0.046896607
198	0xbdf30d5c	-0.118677825
199	0xbde972ab	-0.11398824
200	0xbdf9e750	-0.122023225
201	0x3e3abb78	0.18235576
202	0x3db54179	0.088503785
203	0xbeca646e	-0.39529747
204	0x3d3ad879	0.0456166
205	0xbe21f37d	-0.1581554
206	0x3cca5f8c	0.024703763
207	0xbe871449	-0.26382664
208	0xbdc65dd1	-0.09685863
209	0x3d05f506	0.032704376
210	0x3c99fcda	0.018797327
211	0x3e39a5c4	0.18129641
212	0x3c1a2f54	0.009410698
213	0x3ec71921	0.3888636
214	0xbdbe54b4	-0.092934996
215	0xbed81299	-0.4220169
216	0xbec304b3	-0.38089523
217	0xbcbb5a30	-0.022870153
218	0x3e761200	0.24030304
219	0x399717d3	0.00028818715
220	0xbf08f2aa	-0.53495276
221	0x3e90d359	0.28286245
222	0xbdf9ade1	-0.12191368
223	0xbecd5377	-0.4010274
224	0x3e00c545	0.12575252
225	0xbf0809d3	-0.5313999
226	0xbd3e710a	-0.04649452
227	0x3e91300e	0.28356975
228	0xbed99bbd	-0.4250163
229	0x3e3d72b7	0.18500791
230	0x3e158f30	0.14605403
231	0xbee44610	-0.44584703
232	0xbdc8918e	-0.09793387
233	0xbddab1a6	-0.10678415
234	0x3c8e368c	0.017359994
235	0xbe07c78a	-0.13259712
236	0xbe8a307c	-0.26990116
237	0x3d0cb453	0.034351658
238	0xbe1c1495	-0.15242226
239	0x3e55daf4	0.20884305
240	0xbe0775b9	-0.13228501
241	0xbedf59fe	-0.43623346
242	0xbe54c555	-0.20778401
243	0x3ea42c14	0.3206488
244	0x3e268830	0.16262889
245	0x3e9902d0	0.29884958
246	0xbe371fca	-0.1788322
247	0xbe2972fd	-0.16547771
248	0x3ec04c94	0.37558424
249	0xbd417d50	-0.047238648
250	0x3e8a11fc	0.26966846
251	0x3c4d836a	0.012543539
252	0x3e2843ff	0.16432188
253	0xbe0b9019	-0.13629188
254	0x3ddf31d9	0.108981796
255	0x3b69e436	0.0035689003

encoder.2.weight f4 [64]
0	0x3fd0f6c3	1.6325306
1	0x3fcd7a97	1.6053036
2	0x3fef03a3	1.8672985
3	0x3fc9bfba	1.5761635
4	0x3fff8fcf	1.9965762
5	0x3fd38542	1.6525042
6	0x3fc7b5ef	1.5602397
7	0x3fe654bb	1.7994608
8	0x3fb7369a	1.4313538
9	0x3faa6def	1.3314799
10	0x3fa674d4	1.3004403
11	0x3fa2247e	1.2667387
12	0x3fced35d	1.6158253
13	0x3fae2cb6	1.3607395
14	0x3fc6f41e	1.5543249
15	0x3faf4463	1.3692745
16	0x3fbedcdd	1.4911152
17	0x3fc64248	1.5488977
18	0x3fb4ebb2	1.4134429
19	0x3fddeb36	1.7337406
20	0x3fa7501e	1.3071325
21	0x3fbc6045	1.4716879
22	0x3fb3d718	1.4050016
23	0x3fd62de6	1.6732757
24	0x3fa7363a	1.3063424
25	0x3fb03168	1.3765078
26	0x3fa0c1f5	1.2559191
27	0x3fc06d6b	1.5033392
28	0x3fcafff5	1.5859362
29	0x3fccb954	1.5994058
30	0x3f89da9c	1.0769839
31	0x3fa8db91	1.3192006
32	0x3f9a6fdc	1.2065387
33	0x3fb1e1dc	1.3897052
34	0x3fb1d1c9	1.3892146
35	0x3fd7859e	1.6837652
36	0x3fcc0ba9	1.5941058
37	0x3fb2a62d	1.3956963
38	0x3fc96f2d	1.5737053
39	0x3fd2ed59	1.6478683
40	0x3fb3e680	1.4054718
41	0x3fbdf50f	1.4840411
42	0x3ff709b0	1.9299831
43	0x3fadd624	1.3580976
44	0x3fcc2cad	1.5951134
45	0x3fea8b6a	1.8323796
46	0x3fcfd640	1.6237259
47	0x3fadeb3d	1.3587414
48	0x3fb69e3d	1.426704
49	0x3fc6c36e	1.552839
50	0x3fd18bad	1.6370751
51	0x3fd93a19	1.6970855
52	0x3fa48389	1.2852641
53	0x3fa862ee	1.3155191
54	0x3fca5cc3	1.5809559
55	0x3fe1a317	1.7627896
56	0x3fb7cc35	1.4359194
57	0x3fdac882	1.709244
58	0x3fcd97d6	1.6061962
59	0x3fb999e1	1.4500085
60	0x3fa60e39	1.297309
61	0x3ff661ea	1.9248631
62	0x3fac7702	1.3473818
63	0x3fec1ccc	1.8446288

encoder.2.bias f4 [64]
0	0xbe73538f	-0.23762344
1	0xbedf3d70	-0.4360156
2	0x3ec270ae	0.37976593
3	0x3e0341fc	0.1281814
4	0xbd962b5a	-0.073324874
5	0xbe5d1276	-0.21589074
6	0xbe4adf9b	-0.19811861
7	0xbe310c9a	-0.17289963
8	0xbe607357	-0.21918999
9	0xbe301a08	-0.1719743
10	0xbe3197da	-0.17343083
11	0xbe7fb238	-0.24970329
12	0xbe3ecc4e	-0.18632624
13	0x3e5c23da	0.21498051
14	0xbe049518	-0.129475
15	0xbe6c5f38	-0.23083198
16	0xbe30d4bb	-0.1726865
17	0xbe340b14	-0.17582351
18	0xbd7e555b	-0.06209312
19	0x3d9e96c2	0.077435985
20	0xbde76882	-0.1129923
21	0xbe06e6f3	-0.13174038
22	0xbe823ba0	-0.25436115
23	0xbe4a2e40	-0.19744205
24	0xbe93beca	-0.28856498
25	0xbda7a263	-0.0818527
26	0x3e5175e7	0.20455132
27	0xbe5cb79e	-0.2155442
28	0xbec27c9c	-0.37985694
29	0xbe867e56	-0.26268262
30	0xbe943d8c	-0.28953207
31	0xbdb3c385	-0.08777527
32	0x3d137517	0.036000337
33	0xbe818204	-0.25294507
34	0x3e305a6e	0.17221996
35	0xbd7e16df	-0.06203353
36	0xbe8dd15a	-0.27698785
37	0xbe99aa2f	-0.30012652
38	0xbeb18169	-0.34669045
39	0xbe050960	-0.12991858
40	0x3db13a81	0.08653737
41	0xbea0d64a	-0.3141349
42	0xbcd4ecae	-0.025991764
43	0xbe5e2366	-0.21693191
44	0xbeafdca8	-0.34348035
45	0xbe7fb01c	-0.24969524
46	0xbe2d9740	-0.16952229
47	0xbe1ae008	-0.15124524
48	0xbe33b8d5	-0.17550977
49	0xbe86b507	-0.26309988
50	0xbe5b6a2f	-0.21427225
51	0xbe839bf6	-0.25704926
52	0xbe9b76b0	-0.3036399
53	0x3cd00e9b	0.02539759
54	0xbe2b1487	-0.1670705
55	0x3e8737f3	0.26409873
56	0xbe6c27c1	-0.2306204
57	0xbe7d6695	-0.24746163
58	0x3e26bc88	0.16282856
59	0xbeb82dd4	-0.35972464
60	0xbe5746e8	-0.21023142
61	0x3eec178a	0.4611171
62	0xbec987cd	-0.3936142
63	0xbdd4cded	-0.1039084

encoder.2.m.weight f4 [64, 64, 1, 1]
0	0x3e5e832a	0.21729723
1	0x3cacc84e	0.021091606
2	0xbe4bf036	-0.19915852
3	0xbe4e2311	-0.20130564
4	0x3e62cec5	0.22149189
5	0x3e6af1c8	0.22943795
6	0x3de9cfcc	0.11416587
7	0xbd897195	-0.06711117
8	0xbcf69699	-0.030101107
9	0xbe1213ad	-0.14265318
10	0x3e16ad98	0.14714658
11	0xbf0c32f7	-0.54765266
12	0x3e8745d9	0.26420477
13	0xbdd43eba	-0.10363527
14	0x3d3ed5fb	0.046590786
15	0xbe17d780	-0.148283
16	0x3e048235	0.12940295
17	0xbd940b88	-0.07228762
18	0xbd6be1b6	-0.0575883
19	0xbf13c132	-0.5771667
20	0xbc0e6774	-0.008691657
21	0x3e0f8889	0.14016928
22	0xbe074874	-0.13211232
23	0xbe66f211	-0.22553279
24	0xbe48b983	-0.19602017
25	0xbec6d921	-0.3883753
26	0x3d959aaf	0.07304894
27	0x3b43fb2f	0.0029904356
28	0xbe3c5b82	-0.18394282
29	0x3f191c3b	0.598087
30	0x3df6a6a1	0.12043501
31	0xbb4cb28b	-0.003123435
32	0xbe3d3a33	-0.18479232
33	0x3ea41898	0.32050014
34	0x3e9dce47	0.3082144
35	0x3e115f61	0.1419654
36	0x3d60b595	0.05486067
37	0xbe25b938	-0.16183937
38	0xbd8a328c	-0.06747922
39	0xbe85948b	-0.26089892
40	0xbe04074c	-0.12893409
41	0xbe2e69ea	-0.1703259
42	0xbe221102	-0.158268
43	0x3c02661d	0.007958916
44	0xbe455192	-0.19269398
45	0x3e72d79c	0.23715061
46	0xbdeb0e87	-0.1147738
47	0xbc92fdef	-0.01794335
48	0x3d9bce3d	0.07607696
49	0xbde1887c	-0.110123605
50	0x3e6a7f7a	0.22900191
51	0x3d0455bd	0.03230833
52	0x3e943cd2	0.28952652
53	0xbe2749cf	-0.1633675
54	0xbe4e3543	-0.20137505
55	0xbe9075c4	-0.28214848
56	0xbe63c53f	-0.22243212
57	0x3df4c04e	0.11950742
58	0xbe412db6	-0.18865094
59	0x3e9a786e	0.30170006
60	0x3dd8d065	0.10586623
61	0x3eade394	0.3396269
62	0xbe0dbe3c	-0.138421
63	0x3e6900b3	0.22754173
64	0x3ecb4b77	0.39706013
65	0xbc0b9c0f	-0.008521094
66	0x3dbd4937	0.0924248
67	0x3e134950	0.14383435
68	0x3eb18e51	0.3467889
69	0x3e016cad	0.12639113
70	0xbe94f17a	-0.29090482
71	0xbda893cb	-0.08231314
72	0x3e08b42e	0.13349983
73	0x3e069f17	0.13146625
74	0xbce0f27f	-0.027459381
75	0xbd428a08	-0.047494918
76	0xbe0c5b3a	-0.13706675
77	0xbce217d3	-0.02759925
78	0xbe5ac0eb	-0.21362655
79	0x3dcd985b	0.10038825
80	0xbe19f84b	-0.15036123
81	0xbe753c68	-0.23948824
82	0xbde84862	-0.11341931
83	0xbe411bb0	-0.18858218
84	0x3eb0c7ba	0.3452738
85	0xbe833761	-0.25628188
86	0xbdb89a3a	-0.090137914
87	0xbeb6607e	-0.35620493
88	0xbdd21a4f	-0.10258924
89	0xbdbdd8b0	-0.092698455
90	0xbe0d43c0	-0.13795376
91	0x3e131386	0.14362916
92	0xbd95ae94	-0.07308689
93	0x3decc752	0.11561455
94	0x3e8a1307	0.26967642
95	0x3da54c77	0.08071225
96	0x3d4044e6	0.046940707
97	0x3dfb7c98	0.12279624
98	0x3e1bc0b1	0.15210225
99	0x3dc25ac6	0.0948997
100	0x3e461497	0.19343792
101	0xbe9580e5	-0.291999
102	0xbe264156	-0.16235861
103	0x3dd0075a	0.10157652
104	0x3df4ffeb	0.11962875
105	0x3e059058	0.13043344
106	0xbe62df18	-0.22155416
107	0xbcc250d2	-0.023720179
108	0xbee69b7e	-0.45040506
109	0xbc89bfe1	-0.016815128
110	0x3d0664c3	0.032810938
111	0xbcba9950	-0.022778183
112	0x3de67dd6	0.1125447
113	0x3ea744c7	0.3266966
114	0x3e394fa4	0.18096787
115	0xbe17baf9	-0.14817418
116	0x3d09fd0d	0.033688594
117	0xbc195a1d	-0.009359864
118	0x3e1b4fe2	0.15167192
119	0xbe9eedc0	-0.31040764
120	0xbb85e029	-0.00408556
121	0xbd68465b	-0.05670772
122	0xbdf76133	-0.12079086
123	0x3ea76a03	0.32698068
124	0x3d8f73b8	0.070044935
125	0xbd7a8228	-0.061159283
126	0x3e1e4eb8	0.15459716
127	0xbbbc638d	-0.005749172
128	0x3bebc86d	0.0071955235
129	0xbeb1ad42	-0.34702498
130	0x3e5f27bf	0.21792506
131	0x3ead2359	0.3381603
132	0xbe03de24	-0.12877709
133	0x3de1242e	0.10993229
134	0x3ccd60f3	0.025070643
135	0x3e7ca0ec	0.24670762
136	0x3dfa4488	0.122201025
137	0x3e2067be	0.15664575
138	0x3e5d2b92	0.21598652
139	0x3f0a4eea	0.54026663
140	0x3e052208	0.13001263
141	0xbd85e3b2	-0.0653757
142	0xbee9588b	-0.45575365
143	0xbc187e23	-0.009307417
144	0xbe868bcb	-0.2627853
145	0x3ed7f653	0.42180118
146	0xbddd4dd9	-0.10805864
147	0xbce963a4	-0.028489895
148	0x3d2dfe65	0.042478938
149	0x3dddea33	0.108356856
150	0x3ef80494	0.48440993
151	0x3eb54ad8	0.35408664
152	0x3d8d1752	0.068892136
153	0x3edf4109	0.43604305
154	0xbe5175fb	-0.20455162
155	0xbcc10fbb	-0.023567071
156	0x3b022767	0.0019859911
157	0xbea4caa5	-0.32185856
158	0xbcf329df	-0.029683052
159	0xbd454ec5	-0.048170824
160	0xbe062774	-0.13100988
161	0x3dca9bbb	0.098929845
162	0x3d9cbd72	0.07653321
163	0x3e327c5b	0.1743025
164	0xbd18f3a9	-0.037341747
165	0x3e770f5a	0.2412695
166	0x3de98198	0.11401671
167	0xbe06e6df	-0.13174008
168	0x3e00ed56	0.12590536
169	0x3e12d730	0.143399
170	0x3e4f6be6	0.20256004
171	0xbd656bbc	-0.056010947
172	0x3e502ce4	0.20329624
173	0xbe7967a4	-0.24355942
174	0xbe95eeff	-0.29283902
175	0x3d4b08a5	0.04956879
176	0xbe7503b0	-0.23927188
177	0xbd376c6c	-0.044781134
178	0xbd02fb1e	-0.031977765
179	0x3d793ac9	0.060847078
180	0x3cef0a72	0.029179785
181	0xbe6fdd10	-0.23424172
182	0x3b8352f2	0.0040076906
183	0x3e716c62	0.23576501
184	0xbdc306a6	-0.095227525
185	0xbe8fab0b	-0.28060183
186	0x3e2849f1	0.16434456
187	0xbe0299e4	-0.12754017
188	0xbeb7688f	-0.3582196
189	0xbe883148	-0.266001
190	0x3e8be0f7	0.27320072
191	0x3d2ed639	0.042684767
192	0x3ee1b29d	0.44081584
193	0x3bb57a54	0.0055382643
194	0x3dc64a50	0.09682143
195	0x3d20b322	0.039233334
196	0xbe5c10ca	-0.2149078
197	0xbcad1b6f	-0.021131245
198	0xbe315a91	-0.17319705
199	0x3e8642e8	0.2622292
200	0x3d9146f6	0.07093613
201	0xbc96c4f1	-0.018404456
202	0xbdbc4cee	-0.09194361
203	0x3eecca19	0.46247938
204	0xbe6839ab	-0.22678249
205	0xbe3c24a8	-0.18373358
206	0x3dc398b9	0.09550614
207	0xbe2512bb	-0.16120426
208	0xbe135d1a	-0.14390984
209	0xbd9ace64	-0.07558897
210	0xbdf6397e	-0.120226845
211	0x3de475ed	0.11155305
212	0x3e8b549a	0.27212983
213	0x3dce116e	0.10061918
214	0xbd99d3f0	-0.07511127
215	0xbd598b91	-0.053111617
216	0xbe4d6545	-0.20058163
217	0x3da7d873	0.08195581
218	0xbe8a4b0d	-0.27010384
219	0x3e3d8543	0.18507867
220	0xbd0893eb	-0.03334419
221	0xbf00280b	-0.500611
222	0xbc9ea424	-0.019365378
223	0x3d3facc0	0.046795607
224	0x3da2f0ec	0.079561085
225	0x3e44b8e7	0.1921116
226	0xbda34bbe	-0.07973431
227	0xbe1b4e0d	-0.15166493
228	0x3ecfbf54	0.4057566
229	0xbe0d863e	-0.1382074
230	0xbe6d95d2	-0.23201683
231	0x3d9276fa	0.07151599
232	0xbe2ad98e	-0.16684553
233	0x3c24a12b	0.010048191
234	0x3ea36b56	0.31917828
235	0xbe2f27d7	-0.17105041
236	0xbe7bbda0	-0.24584055
237	0xbd954450	-0.0728842
238	0x3e2ec5a6	0.17067584
239	0x3ea96478	0.33084464
240	0x3c6eecd5	0.014582832
241	0x3eb2bdd7	0.3491046
242	0xbc3854af	-0.011250659
243	0x3dcb4259	0.09924764
244	0xbd2f54a6	-0.042805336
245	0xbd0aa684	-0.033850208
246	0x3e9061b5	0.28199545
247	0x3e103267	0.14081727
248	0x3ec00a0c	0.37507665
249	0x3df55195	0.11978451
250	0xbd6549a0	-0.055978417
251	0xbe2beb25	-0.1678892
252	0xbc7a9261	-0.0152936885
253	0xbe22b154	-0.15887958
254	0xbe9b27bc	-0.30303752
255	0xbda790de	-0.08181928

encoder.3.weight f4 [256, 64, 1, 1]
0	0xbd238a48	-0.039926797
1	0xbe4aa99a	-0.1979126
2	0x3daad033	0.08340492
3	0x3dfc5341	0.12320567
4	0x3b37190e	0.0027938518
5	0x3e0e6ad2	0.13907936
6	0x3cd43756	0.025905292
7	0x3d56ae8d	0.05241256
8	0xbc3ce078	-0.011528127
9	0x3db4338f	0.087988965
10	0x3d9fc3d7	0.07801025
11	0xbe2e8008	-0.17041028
12	0xbeb2234c	-0.34792554
13	0x3da1ee72	0.07906808
14	0xbca6ae69	-0.020346837
15	0xbd7cea42	-0.061746843
16	0x3d0ab2f3	0.033862066
17	0x3d94e063	0.07269361
18	0xbe3acdc8	-0.18242562
19	0xbd9a53ec	-0.07535538
20	0xbe3c0cc3	-0.18364243
21	0x3dbfda27	0.09367781
22	0xbca14fc5	-0.019691357
23	0x3e06c0d3	0.13159494
24	0x3e198e67	0.14995728
25	0xbbf2473d	-0.007393746
26	0x3cc204a2	0.02368385
27	0x3d8c0d40	0.06838465
28	0xbe531a35	-0.20615466
29	0xbe23d7ce	-0.16000292
30	0x3d069926	0.032860897
31	0x3dc0db8a	0.09416874
32	0xbe91d051	-0.28479245
33	0xbcab0688	-0.020877138
34	0xbe27d521	-0.16389896
35	0xbb85d4d0	-0.004084207
36	0xbe147664	-0.14498287
37	0x3db219fb	0.08696362
38	0x3d320ddf	0.04347026
39	0xbe9ffa0f	-0.31245467
40	0xbdf41a7a	-0.119191125
41	0xbe35ad16	-0.17741808
42	0x3e874912	0.26422936
43	0xbe7ab899	-0.24484481
44	0xbdfea25b	-0.124333106
45	0x3e4382ec	0.19092911
46	0xbeadedd5	-0.33970514
47	0xbdc9c133	-0.09851303
48	0xbe15ed1b	-0.1464123
49	0x3d03e1d6	0.032197796
50	0xbd5dd0e0	-0.054154277
51	0xbe28a2c8	-0.16468346
52	0xbd8276a9	-0.06370289
53	0xbe0379fa	-0.12839499
54	0xbd6795f7	-0.056539502
55	0x3e14b4d8	0.14522111
56	0x3da3fcd1	0.08007205
57	0xbd37c813	-0.04486854
58	0xbd83c83e	-0.064346775
59	0xbddcfa8b	-0.10789975
60	0xbc18a606	-0.009316927
61	0x3dd16155	0.10223643
62	0xbd2488ef	-0.040169653
63	0xbd51364b	-0.05107717
64	0xbd1b0bc2	-0.03785301
65	0x3e1cb2de	0.15302607
66	0x3c21b0b4	0.009868789
67	0x3d1210d3	0.035660576
68	0xbe9823b0	-0.29714727
69	0x3e6a7267	0.22895204
70	0x3da90989	0.08253772
71	0xbdd459af	-0.10368668
72	0x3c924786	0.01785637
73	0x3d05167b	0.032492142
74	0x3dd25d9a	0.10271759
75	0x3d7b98d6	0.061425053
76	0x3d6f1390	0.058368266
77	0x3bb229a0	0.005437091
78	0xbe339998	-0.1753906
79	0x3de1bbd1	0.11022151
80	0xbe01afee	-0.12664768
81	0x3d9db6c6	0.07700877
82	0x3dcd93aa	0.1003793
83	0xbd4ce60a	-0.05002407
84	0x3cca93aa	0.024728615
85	0x3d705bbc	0.058681235
86	0x3df54eaa	0.119778946
87	0x3d38b9f0	0.0450992
88	0x3c99bf36	0.018767934
89	0x3d524fae	0.05134552
90	0x3dd12468	0.10212022
91	0x3e4919bb	0.19638722
92	0x3db7c4df	0.08973097
93	0x3dd19c9e	0.102349505
94	0x3ce53e09	0.027983682
95	0x3df33e07	0.11877065
96	0x3e226c02	0.15861514
97	0x3e1584a3	0.14601378
98	0x3d128317	0.03576955
99	0x3da643cb	0.08118399
100	0x3ccb768c	0.024836801
101	0x3e2bee99	0.16790237
102	0x3d49a026	0.049224995
103	0x3e749d28	0.23888075
104	0x3c606155	0.013695081
105	0x3d9f4bdd	0.07778142
106	0xbdfca746	-0.123365924
107	0x3de4a804	0.11164859
108	0x3de54606	0.111949965
109	0x3e061341	0.13093282
110	0x3db762e4	0.08954409
111	0xbe78430c	-0.24244326
112	0x3d671e04	0.05642511
113	0xbe1cbbce	-0.15306017
114	0xbdb691ae	-0.08914505
115	0xbd061a0d	-0.032739688
116	0x3dc0e921	0.09419466
117	0xbd0d224c	-0.034456536
118	0xbcf5bb37	-0.029996498
119	0x3bb74740	0.0055932105
120	0x3d7b7a43	0.061395895
121	0xbe53d636	-0.20687184
122	0x3e160b95	0.14652856
123	0xbc3d27db	-0.011545147
124	0x3de39bc4	0.11113694
125	0xbd25b7ab	-0.040458363
126	0x3e0daa68	0.13834536
127	0xbe18da7f	-0.149271
128	0xbdb5d7ac	-0.08879027
129	0xbe19e6fa	-0.15029517
130	0x3dbe69b1	0.09297503
131	0x3dcfd20b	0.101474844
132	0xbb30e6bc	-0.0026992997
133	0x3da45c75	0.08025447
134	0xbe077e60	-0.13231802
135	0x3cca94e8	0.024729207
136	0xbd23ace1	-0.039959792
137	0x3d8c2b08	0.06844145
138	0x3df953f1	0.12174214
139	0xbe28dc31	-0.16490246
140	0xbde2bb67	-0.110709004
141	0x3da46469	0.08026964
142	0xbb057520	-0.0020364001
143	0xbc85c6bd	-0.016330117
144	0x3d1d1f9c	0.038360223
145	0x3d6f2c3e	0.058391802
146	0xbe0f262f	-0.1397941
147	0xbe2298ba	-0.15878573
148	0xbe1bd08a	-0.1521627
149	0x3df3c1e3	0.11902215
150	0x3d22b518	0.039723486
151	0x3e06e71f	0.13174103
152	0x3e33faa3	0.17576079
153	0x3c8c4ac1	0.01712549
154	0x3d1729a7	0.036904957
155	0x3e05df14	0.13073379
156	0xbe40916b	-0.18805473
157	0xbe12d2c1	-0.14338209
158	0x3d03fe5d	0.032225
159	0x3d95df7c	0.07318017
160	0xbe0387b8	-0.12844741
161	0x3d3983c9	0.045291696
162	0xbe29fad9	-0.16599597
163	0xbe6cbec5	-0.23119648
164	0xbe044f75	-0.12920935
165	0x3e0cd332	0.1375244
166	0xbdb75f18	-0.089536846
167	0xbebd24f3	-0.36942253
168	0xbe81383d	-0.2523822
169	0xbdc08b63	-0.09401586
170	0x3e476289	0.19471182
171	0xbe2d4044	-0.16919047
172	0xbdf01b10	-0.11723912
173	0x3e4ed572	0.2019861
174	0xbe9a5946	-0.30146235
175	0xbd7a59c8	-0.06112078
176	0xbe27abf2	-0.16374186
177	0x3cf46039	0.029831039
178	0xbd9ffca4	-0.07811859
179	0xbe1949f5	-0.14969619
180	0xbe2d436f	-0.16920255
181	0xbdbfd4f7	-0.09366792
182	0xbd7561b9	-0.05990765
183	0x3e0f957a	0.14021865
184	0x3dbc3818	0.091903865
185	0xbd88d875	-0.06681911
186	0xbd818f8f	-0.0632621
187	0xbd559402	-0.052143104
188	0x3d16b78d	0.03679614
189	0x3dbc22b7	0.09186309
190	0xbcc090d3	-0.023506558
191	0xbd81a440	-0.06330156
192	0xbc996898	-0.018726632
193	0xbe1dd412	-0.1541293
194	0x3db40676	0.08790295
195	0x3d2b0819	0.04175577
196	0x3daa3ce0	0.08312392
197	0xbeb0c2a6	-0.34523505
198	0x3e29acf4	0.16569883
199	0x3dc315e5	0.095256604
200	0xbd785691	-0.06062943
201	0x3dd85c23	0.10564449
202	0xbe69a641	-0.22817327
203	0xbe4433bc	-0.1916036
204	0xbdd5652d	-0.104196884
205	0x3d928a8e	0.071553335
206	0xbc85d23c	-0.0163356
207	0xbe1a2407	-0.15052806
208	0xbdb71ab7	-0.08940642
209	0xbd41a6c4	-0.04727818
210	0xbe424035	-0.18969806
211	0xbdcfc87e	-0.10145663
212	0xbe0dc935	-0.13846286
213	0xbe3a956d	-0.18221064
214	0xbe2b0665	-0.16701658
215	0x3d451993	0.048120093
216	0xbdef3f41	-0.116819866
217	0xbe2c71eb	-0.16840331
218	0x3bc0d55d	0.00588481
219	0xbe640e9c	-0.22271198
220	0xbe86edda	-0.2635334
221	0xbea81dd5	-0.3283526
222	0xbe554d8c	-0.20830363
223	0x3d9fe041	0.07806445
224	0xbdf55634	-0.119793326
225	0xbe8135db	-0.252364
226	0xbe07a793	-0.13247518
227	0x3e24a54f	0.16078685
228	0xbe434686	-0.19069871
229	0xbe24860c	-0.1606676
230	0x3dd62215	0.104557194
231	0x3d266e0f	0.040632304
232	0xbe166ad3	-0.14689188
233	0xbc259b9b	-0.0101079
234	0x3ed12fc3	0.40856752
235	0xbd7f52fa	-0.062334992
236	0xbe38a168	-0.18030322
237	0x3ce9037b	0.028444042
238	0x3c13405d	0.008987513
239	0xbe043d75	-0.12914069
240	0xbe2d880c	-0.16946429
241	0x3db61666	0.08890991
242	0xbd903556	-0.07041423
243	0xbd9e88bf	-0.07740926
244	0xbdc60a4e	-0.09669934
245	0xbe876192	-0.26441628
246	0xbce95cf5	-0.028486708
247	0x3ddcf218	0.10788363
248	0x3e5c404f	0.21508907
249	0x3c6b2001	0.014350892
250	0xbe2a8e09	-0.16655745
251	0xbe9bfaf3	-0.30464897
252	0xbe48961a	-0.19588509
253	0x3e27a967	0.16373216
254	0xbd8f736b	-0.07004436
255	0x3cf3c806	0.029758465

encoder.3.bias f4 [256]
0	0x3de5baf6	0.112173006
1	0x3d0f2c92	0.034954615
2	0x3d97fac3	0.07420876
3	0x3df59f82	0.11993314
4	0x3db5c2ef	0.08875071
5	0x3e2d2f9b	0.16912691
6	0xbd0c3822	-0.03423322
7	0x3de510b4	0.111848265
8	0x3ded57fa	0.11589046
9	0x3c5966ce	0.013269139
10	0x3e2cd4a5	0.16877992
11	0x3d95f97f	0.07322978
12	0x3da98f3d	0.08279274
13	0x3d9cac43	0.07650044
14	0x3de80261	0.11328579
15	0x3e1e5a3f	0.15464114
16	0x3dc726c0	0.09724188
17	0x3dc89e7e	0.09795855
18	0x3e320f24	0.17388588
19	0x3e28ce92	0.1648505
20	0x3c9eb55e	0.019373592
21	0x3e391e8b	0.18078057
22	0x3e47a7a8	0.1949755
23	0x3e087a0a	0.13327804
24	0xbc266ac1	-0.010157288
25	0x3dd6579a	0.104659274
26	0x3e401e9b	0.18761675
27	0x3e0f1a76	0.13974938
28	0x3e1817e0	0.14852858
29	0x3e167025	0.14691217
30	0x3db8870d	0.09010134
31	0x3e0b1902	0.13583758
32	0x3dd0a5ec	0.10187897
33	0x3d9969ae	0.0749086
34	0x3e06914d	0.13141365
35	0x3d8435a0	0.06455541
36	0x3e064fcd	0.13116379
37	0x3e029399	0.12751617
38	0x3dadb3ef	0.08481585
39	0xbd7c1ff0	-0.061553895
40	0x3cab45d4	0.02090732
41	0xbb4f4260	-0.0031625256
42	0xbcd91391	-0.026498588
43	0x3d376692	0.044775553
44	0x3ded7939	0.11595387
45	0x3dc96d74	0.0983533
46	0x3dfda638	0.12385219
47	0x3df9979e	0.12187122
48	0xbc0b30e2	-0.008495541
49	0x3d52f277	0.051500764
50	0x3c862694	0.016375817
51	0x3db620e5	0.08892993
52	0x3e2b5e97	0.16735302
53	0x3d922c5e	0.071373686
54	0x3dc04333	0.09387817
55	0x3d55872c	0.052130863
56	0x3e297dfc	0.16551965
57	0x3df01c22	0.11724116
58	0x3e3060a6	0.17224368
59	0x3e4d0efa	0.20025244
60	0x3de954ca	0.11393125
61	0x3dc1f7c0	0.09471083
62	0x3e25124d	0.16120262
63	0xbd026654	-0.03183587
64	0xbcbb299f	-0.022846995
65	0xbccd3482	-0.025049452
66	0x3dc916c9	0.09818799
67	0x3dcdedff	0.1005516
68	0x3e2f5037	0.17120443
69	0xbd305190	-0.043046534
70	0x3d441180	0.04786825
71	0x3e2a8c11	0.16654994
72	0x3cffd7e6	0.031230878
73	0x3e031966	0.12802657
74	0x3e2f3daa	0.17113367
75	0x3d458860	0.04822576
76	0xbc4613d4	-0.012089688
77	0xbb84399c	-0.004035188
78	0x3da1264f	0.07868635
79	0x3dd743a6	0.1051095
80	0xbc75de43	-0.015006605
81	0x3db72af9	0.08943743
82	0x3e229854	0.15878421
83	0x3dc272a6	0.09494524
84	0x3d1b0fa7	0.037856724
85	0x3d3c473a	0.045966364
86	0x3d9f7255	0.07785479
87	0x3d7f0b6f	0.062266763
88	0x3e121761	0.14266731
89	0x3dfdf20e	0.12399684
90	0x3e53fe0b	0.20702378
91	0xbc3e2999	-0.011606597
92	0xb9fcbc84	-0.0004820564
93	0x3e27332c	0.16328114
94	0x3df4dca8	0.11956149
95	0x3dd0fb16	0.10204141
96	0x3ba52c83	0.0050407066
97	0x3e3492b8	0.17634094
98	0x3df88e2d	0.12136493
99	0x3e2b0600	0.16701508
100	0x3e13f0f2	0.14447382
101	0xbae4e16c	-0.00174622
102	0x3e18ec5d	0.14933915
103	0x3e5c6fab	0.21526973
104	0x3d6250b9	0.055252764
105	0x3dd6ed32	0.1049446
106	0x3dfe71e4	0.12424067
107	0x3dda4e2a	0.1065944
108	0xbc5edb93	-0.013602155
109	0x3da42e3f	0.08016633
110	0x3e5245c2	0.20534423
111	0x3cd994fa	0.026560295
112	0xbf43d636	-0.76498735
113	0x3e0022ee	0.12513325
114	0x3e07a404	0.13246161
115	0x3ac86b05	0.0015290683
116	0xbbf97bb4	-0.0076136235
117	0x3cc1aafa	0.023641098
118	0x3e27a4c7	0.16371451
119	0x3e0a0bcb	0.13481061
120	0x3e0dde32	0.13854292
121	0x3df18da7	0.11794596
122	0xbcea62f0	-0.02861163
123	0x3e40086a	0.1875321
124	0x3e4a9466	0.19783172
125	0x3e088473	0.13331775
126	0x3d9454e8	0.07242757
127	0x3c802537	0.015642745
128	0x3e2aa136	0.1666306
129	0x3de3dede	0.11126493
130	0x3da04818	0.07826251
131	0xbc819a59	-0.015820669
132	0x3d6dbce8	0.058041483
133	0x3e0892af	0.13337205
134	0x3e0312f6	0.12800202
135	0xbc42a9f6	-0.011881342
136	0x3d43fbb7	0.047847476
137	0x3df3be67	0.11901551
138	0x3d7b9673	0.061422776
139	0x3dfbceec	0.122953266
140	0x3dac8822	0.08424403
141	0x3e268f05	0.16265495
142	0x3e033aac	0.1281535
143	0x3dfe5573	0.12418642
144	0x3c90d689	0.017680423
145	0x3e31b839	0.17355432
146	0x3dc5f401	0.09665681
147	0x3e2a9510	0.16658425
148	0x3d9604e1	0.07325149
149	0x3dff82ff	0.124761574
150	0x3de6440e	0.11243449
151	0x3b153a94	0.002277051
152	0x3d90d942	0.07072689
153	0x3e52aa4c	0.20572776
154	0x3dd6eb11	0.10494054
155	0x3dfaa463	0.122383855
156	0x3b54d2dc	0.0032474315
157	0x3e16cf97	0.14727627
158	0x381e3fae	3.7729442e-05
159	0x3d272e89	0.040815864
160	0x3d462ef0	0.048384607
161	0x3dec4a85	0.11537651
162	0x3e1d606c	0.15368813
163	0x3df4632a	0.119329765
164	0x3daa6c91	0.08321489
165	0x3d71c6f4	0.059027627
166	0x3dbaf477	0.09128659
167	0x3dffdb7b	0.124930345
168	0xbd97c155	-0.07409922
169	0xbb93e9e0	-0.004513964
170	0x3c52c0bb	0.012863333
171	0x3d4a1cec	0.04934399
172	0x3e298763	0.16555552
173	0x3e5d0cd9	0.21586932
174	0x3e0693e1	0.13142349
175	0x3df767c6	0.1208034
176	0x3dfd767a	0.12376113
177	0xbd3ffebf	-0.046873804
178	0xbce61bb4	-0.028089382
179	0x3d9cba8a	0.07652767
180	0xbceb8f5f	-0.028754888
181	0xbc057825	-0.0081463205
182	0x3d35de40	0.044401407
183	0xbc93d04e	-0.018043663
184	0x3df4bd2c	0.11950144
185	0x3dc090ab	0.09402593
186	0x3cc331d8	0.023827478
187	0x3e0a2f71	0.1349466
188	0x3d8ce51c	0.06879637
189	0x3dfa49de	0.1222112
190	0x3d78e13c	0.060761675
191	0xbc970350	-0.018434197
192	0x3db6a676	0.08918469
193	0x3df4135e	0.119177565
194	0x3b4cfb2e	0.0031277644
195	0x3deb1934	0.114794165
196	0x3c82ada7	0.015951945
197	0x3dfe7ad5	0.12425772
198	0x3d9dd8b6	0.0770735
199	0xbd0d0100	-0.03442478
200	0x3dab21a4	0.08356026
201	0x3dd07f32	0.101805106
202	0x3dd2f136	0.102999136
203	0xbcbdcd98	-0.023169324
204	0x3e22842d	0.15870734
205	0x3e29fe9a	0.16601029
206	0x3e0c4fc6	0.13702306
207	0x3d6a4f16	0.05720433
208	0x3e04c0b9	0.12964143
209	0x3d857571	0.06516541
210	0x3e0ee8f0	0.13956046
211	0x3db30e37	0.08742946
212	0xbcc68eec	-0.024238072
213	0xbc326528	-0.010888375
214	0x3db53df4	0.08849707
215	0x3df0eff5	0.11764518
216	0x3ce67a31	0.028134437
217	0x3e254d77	0.16142832
218	0xbf5e9f67	-0.8696198
219	0x3dc0611d	0.09393523
220	0x3cddd9ab	0.027081331
221	0x3cb4df40	0.02207911
222	0x37b6148b	2.1705657e-05
223	0x3db19532	0.08671035
224	0xbd2317c8	-0.0398176
225	0x3db805a8	0.08985454
226	0xbd2ad676	-0.041708432
227	0x3df42f82	0.11923124
228	0x3decf24a	0.115696505
229	0x3d02bfe0	0.031921268
230	0xbf1f8d92	-0.62325394
231	0x3dedebb1	0.1161722
232	0x3d923b4a	0.07140215
233	0x3d5911d2	0.05299551
234	0x3d166fb5	0.036727626
235	0x3e267521	0.16255619
236	0x3e57c5ee	0.21071598
237	0x3da6504e	0.08120786
238	0x3cc51460	0.024057567
239	0x3df22590	0.11823571
240	0x3bf96a71	0.0076115658
241	0x3de1633e	0.11005257
242	0x3e1f1459	0.15535106
243	0x3d4230f8	0.04740998
244	0x3d740546	0.05957534
245	0x3c60c7b4	0.013719488
246	0x3cf2deb9	0.029647218
247	0x3dff49ab	0.12465223
248	0xbc7ebb99	-0.015547656
249	0xba9d8cc1	-0.0012020097
250	0x3dc285f5	0.094982065
251	0x3cec4968	0.028843597
252	0x3d91a1aa	0.07110913
253	0x3df40a4f	0.11916029
254	0xbc450047	-0.012023992
255	0x3d18f088	0.037338763

decoder.0.weight f4 [64]
0	0x3f750c79	0.95722157
1	0x3f3f8115	0.7480634
2	0x3f3a3971	0.727439
3	0x3f6e6970	0.93129635
4	0x3f6db43d	0.92853147
5	0x3f4e889c	0.806772
6	0x3f89d644	1.0768514
7	0x3f70b261	0.94022185
8	0x3f629c39	0.88519627
9	0x3f41105d	0.75415593
10	0x3f8ead3a	1.1146615
11	0x3f64ee5a	0.89426196
12	0x3f97a31c	1.1846652
13	0x3f1964c7	0.599194
14	0x3f4537df	0.7703838
15	0x3f72df07	0.9487156
16	0x3f6dd412	0.9290172
17	0x3f86d811	1.0534688
18	0x3f9b07af	1.211172
19	0x3f8dd791	1.1081411
20	0x3f79250b	0.9732215
21	0x3f20629e	0.6265048
22	0x3f67969f	0.90464205
23	0x3f1e60d0	0.61866474
24	0x3f203cc3	0.62592715
25	0x3f856da9	1.0424091
26	0x3f32a983	0.69789904
27	0x3f64045c	0.8906915
28	0x3f3ed636	0.7454561
29	0x3f81f728	1.0153551
30	0x3f48229c	0.7817781
31	0x3f866c00	1.0501709
32	0x3f2d9736	0.67808855
33	0x3f87754e	1.0582674
34	0x3f7ecf48	0.99535036
35	0x3f38fa7b	0.722572
36	0x3f727ff6	0.947265
37	0x3f2f92f3	0.685836
38	0x3f4976ca	0.7869688
39	0x3f1ee48f	0.620675
40	0x3f87055d	1.0548512
41	0x3f8799cd	1.0593811
42	0x3f997bca	1.1990902
43	0x3f87bd2b	1.0604604
44	0x3f89ec51	1.0775243
45	0x3f851dd6	1.039973
46	0x3f75db7d	0.9603804
47	0x3f7bf6cc	0.9842346
48	0x3f82ba01	1.0213014
49	0x3f616cbc	0.8805654
50	0x3f785f51	0.9702044
51	0x3f708bd0	0.93963337
52	0x3f30b281	0.69022375
53	0x3f846141	1.034218
54	0x3f29535a	0.6614281
55	0x3f181134	0.5940125
56	0x3f8c67b0	1.0969143
57	0x3f5e7f66	0.86913145
58	0x3f906595	1.1281
59	0x3f8434a9	1.0328571
60	0x3f76ce04	0.96408105
61	0x3f276613	0.6539013
62	0x3f7e18e6	0.9925674
63	0x3f5b0e1a	0.8556839

decoder.0.bias f4 [64]
0	0xbeaa84ac	-0.33304346
1	0xbdacb292	-0.08432497
2	0xbe6378fa	-0.22214118
3	0xbeacaf2f	-0.33727404
4	0xbe96ad44	-0.29429066
5	0xbdd813dd	-0.105506636
6	0xbe8220f5	-0.2541577
7	0xbe96f92a	-0.29486972
8	0xbe85777a	-0.26067716
9	0xbe0221b5	-0.1270817
10	0xbe7a56b0	-0.24447131
11	0xbec6c420	-0.38821507
12	0xbe79fbb1	-0.24412419
13	0xbe6a86e4	-0.22903019
14	0xbe96b85d	-0.29437533
15	0xbeb1078d	-0.34576073
16	0xbebd7290	-0.37001467
17	0xbe9f5584	-0.3111993
18	0xbe8ce660	-0.27519512
19	0xbe95fabd	-0.2929286
20	0xbeb75907	-0.3581011
21	0xbe1619de	-0.14658305
22	0xbe959b2a	-0.29219943
23	0xbe47733f	-0.19477557
24	0xbe7fba7b	-0.2497348
25	0xbe9280c8	-0.28613877
26	0xbdefc18a	-0.117068365
27	0xbe8c0bd3	-0.2735277
28	0xbe48b215	-0.19599183
29	0xbe83cca9	-0.2574208
30	0xbe4a6695	-0.19765694
31	0xbe841438	-0.25796676
32	0xbe048507	-0.12941371
33	0xbe87a98d	-0.26496544
34	0xbe8aa640	-0.27079964
35	0xbe21d8dc	-0.15805382
36	0xbeacad91	-0.3372617
37	0xbe1d048c	-0.15333766
38	0xbd2d472d	-0.042304207
39	0xbe2ce2e4	-0.16883427
40	0xbe47dcc5	-0.1951781
41	0xbe861600	-0.2618866
42	0xbe9a82e8	-0.30178
43	0xbe8de9ac	-0.2771734
44	0xbe6ccb48	-0.2312442
45	0xbe8c217e	-0.27369303
46	0xbea302f7	-0.318382
47	0xbe772f57	-0.24139152
48	0xbe889b83	-0.26681146
49	0xbe8ef033	-0.27917632
50	0xbe4dd426	-0.2010046
51	0xbeae288c	-0.3401531
52	0xbe1e6a8a	-0.15470329
53	0xbead1a2b	-0.33809027
54	0xbe2ede89	-0.17077078
55	0xbe332f27	-0.17498456
56	0xbe7ce0c8	-0.24695122
57	0xbe96d06e	-0.29455894
58	0xbe8e8aff	-0.2784042
59	0xbe881b62	-0.2658339
60	0xbea27de1	-0.31736663
61	0xbed27b0e	-0.41109508
62	0xbe9c9d3d	-0.30588713
63	0xbe0f78b9	-0.14010896
